runs/debug1/best.pt (torch, 327553 bytes, 23 tensors)

enc1.0.weight f4 [16, 3, 3, 3]
0	0x3e32a14b	0.17444341
1	0x3e3e8c85	0.18608291
2	0xbcd52cce	-0.026022341
3	0x3e4bc4fa	0.1989936
4	0xbd3ead4a	-0.04655198
5	0x3d7d2acf	0.061808404
6	0xbdd7c1e6	-0.1053503
7	0x3e0f44a4	0.13991028
8	0x3e4a2222	0.19739583
9	0xbdfb7774	-0.12278643
10	0x3e3782dd	0.17921014
11	0x3d4d983e	0.050194018
12	0x3e1e1f8b	0.1544172
13	0x3d2d1c75	0.042263467
14	0x3ddaa754	0.106764466
15	0xbc2ffbf9	-0.010741227
16	0x3e24f3fc	0.16108698
17	0x3d35de66	0.04440155
18	0xbd919649	-0.07108743
19	0x3d83ff1b	0.06445142
20	0xbd8efb5e	-0.06981538
21	0xbbcc71f0	-0.0062391683
22	0xbd6d6c2c	-0.05796449
23	0x3e13b9ed	0.14426394
24	0xbe05fb67	-0.13084184
25	0xbd8cbd16	-0.06872003
26	0xbd101ff6	-0.03518673
27	0xbdedc46b	-0.116097294
28	0xbb570ef8	-0.0032815319
29	0xbe3042cf	-0.17212985
30	0x3e4ea866	0.20181426
31	0xbe2109ba	-0.15726367
32	0x3e310627	0.17287503
33	0x3d7004f3	0.05859847
34	0xbd0f8e49	-0.035047803
35	0x3e106eae	0.14104721
36	0x3d3ab115	0.045579035
37	0x3e29ae50	0.16570401
38	0x3d0bb404	0.034107223
39	0xbd45d099	-0.048294637
40	0x3d8049c5	0.062640704
41	0xbd213117	-0.039353456
42	0x3dc313f6	0.095252916
43	0x3e384340	0.17994404
44	0x3dfd938a	0.123816565
45	0xbd8e789d	-0.06956599
46	0x3df7e9be	0.1210513
47	0x3d43d208	0.047807723
48	0x3de49ea2	0.11163069
49	0xbdcedcd5	-0.10100714
50	0xbe325a01	-0.17417146
51	0xbd696908	-0.05698493
52	0xbe074cf0	-0.13212943
53	0x3e29ead5	0.16593488
54	0x3da8f6ea	0.0825022
55	0x3ddb54e5	0.10709552
56	0x3db4c731	0.08827055
57	0x3cc6f207	0.02428533
58	0x3e364ee7	0.17803536
59	0xbde28ea7	-0.11062365
60	0x3d2061ea	0.039155878
61	0xbdef9e71	-0.11700142
62	0x3daffa5b	0.085926734
63	0xbd1e83be	-0.038699858
64	0x3db16030	0.086609244
65	0xbc4d350d	-0.012524855
66	0x3e3fcfd6	0.18731627
67	0xbdb14cce	-0.086572275
68	0xbdb2b133	-0.08725204
69	0xbdb2bd95	-0.08727566
70	0x3e4db0a8	0.2008692
71	0x3dbc006e	0.091797695
72	0x3e5a01b8	0.21289718
73	0xbe066cd1	-0.13127448
74	0xbe276930	-0.1634872
75	0xbdfc01ba	-0.12305017
76	0xbdd0b723	-0.101911806
77	0x3dd846df	0.105603926
78	0x3dc5d476	0.09659664
79	0x3e4024fd	0.1876411
80	0xbd9307f4	-0.07179251
81	0xbdd766a4	-0.10517624
82	0x3e00aacd	0.12565155
83	0xbd5dda78	-0.054163426
84	0x3e12a6ea	0.14321485
85	0xbc9a6cc3	-0.01885069
86	0x3e0c4879	0.13699521
87	0xbdfb5846	-0.12272696
88	0xbd8fb585	-0.07017044
89	0x3dad2af8	0.08455461
90	0x3d8a13bb	0.067420445
91	0xbcb77c8a	-0.022398252
92	0x3e10e898	0.14151227
93	0x3e216d28	0.15764296
94	0xbde79fc5	-0.113097705
95	0xbd9c2921	-0.07625032
96	0x3e4fbf89	0.20287909
97	0xbd1d5517	-0.038411226
98	0xbd2abc9a	-0.04168377
99	0xbe23a775	-0.15981849
100	0xbdab5932	-0.08366622
101	0x3d99179f	0.074752085
102	0x3a9f4fac	0.0012154481
103	0xbde80d50	-0.11330664
104	0x3cff4d2d	0.03116473
105	0xbdd77d70	-0.10521972
106	0xbe0c5c2a	-0.13707033
107	0xbda2d3c7	-0.079505496
108	0xbe2b6663	-0.16738276
109	0xbde6fb1e	-0.112783656
110	0x3e457b68	0.19285357
111	0x3d53e738	0.05173418
112	0x3d74df87	0.059783485
113	0xbe362a97	-0.17789684
114	0xbde413cd	-0.11136589
115	0xbd8a69e0	-0.06758475
116	0x3d2bf512	0.041981764
117	0xbe21b4d0	-0.1579163
118	0xbda34933	-0.07972946
119	0xbdeb375c	-0.11485168
120	0x3c7e59c1	0.015524329
121	0xbd869616	-0.06571595
122	0xbc4aab8f	-0.012370004
123	0xbde85081	-0.1134348
124	0xbe076334	-0.13221437
125	0xbde1c8c9	-0.11024625
126	0xbd512881	-0.05106402
127	0xbe18c19f	-0.1491761
128	0x3e2666b9	0.16250123
129	0xbccb233d	-0.024797076
130	0x3e2b1e0b	0.16710679
131	0x3d75406c	0.05987589
132	0xbe16fdad	-0.14745207
133	0x3e0c6441	0.13710119
134	0xbd52f95d	-0.051507343
135	0xbd90f6da	-0.07078333
136	0xbe074c22	-0.13212636
137	0xbe5f2b9d	-0.21793981
138	0x3da96c64	0.08272627
139	0xbc646a75	-0.013941397
140	0x3dd33ee2	0.10314728
141	0xbe3939de	-0.18088481
142	0x3e2dde92	0.16979435
143	0xbe0ccb16	-0.13749346
144	0xbbb3179d	-0.0054654614
145	0x3d8b31af	0.06796586
146	0x3e02100f	0.12701438
147	0x3e3b733b	0.18305676
148	0x3e500168	0.20313036
149	0xbdff9766	-0.12480049
150	0x3d9c2084	0.07623389
151	0xbd61029c	-0.05493413
152	0x3bdb953e	0.0067011407
153	0xbdee0b1f	-0.11623215
154	0x3e4fd047	0.20294295
155	0xbde84e19	-0.11343021
156	0x3e05b658	0.1305784
157	0x3dc368ed	0.095414974
158	0x3db90a69	0.09035189
159	0xbd9c0bf7	-0.076194696
160	0x3e4f5cc0	0.20250225
161	0x3d8f9ab1	0.07011927
162	0x3d56c4a9	0.052433643
163	0xbe25c158	-0.16187036
164	0x3ddea2df	0.10870909
165	0xba9dc21a	-0.0012035996
166	0xbd834de9	-0.064113446
167	0x3e45310b	0.1925699
168	0x3d90e574	0.07075015
169	0xbdf6c231	-0.12048758
170	0xbd962d7e	-0.07332896
171	0x3c91a322	0.017777983
172	0x3e08e69f	0.13369225
173	0xbcb4c584	-0.022066839
174	0xbda8e233	-0.08246269
175	0xbd1f3a03	-0.038873684
176	0xbdee5568	-0.11637384
177	0x3dc335e4	0.09531763
178	0x3e33569c	0.17513508
179	0xbe1d801d	-0.15380903
180	0x3d921655	0.07133166
181	0x3e0158a8	0.12631476
182	0x3d7bd9ea	0.061487116
183	0xbd29ba12	-0.041437216
184	0x3e024172	0.12720278
185	0x3e029ab6	0.1275433
186	0x3dc9d8e5	0.098558225
187	0xbbd7bcd6	-0.0065837903
188	0xbcc46ec9	-0.023978608
189	0x3d2a8c5d	0.041637767
190	0xbc069267	-0.008213616
191	0xbd12d6f8	-0.03584954
192	0x3e110640	0.1416254
193	0x3e2f4709	0.17116942
194	0xbd378414	-0.044803694
195	0xbca02768	-0.01955004
196	0x3c4a7270	0.012356386
197	0xbd0e358a	-0.034719028
198	0x3d549518	0.0519
199	0x3d7430db	0.059616905
200	0xbe2b8dbd	-0.16753288
201	0xbd8280f9	-0.06372256
202	0x3e2c8949	0.16849245
203	0x3da59401	0.0808487
204	0xbb4cdecb	-0.0031260725
205	0xbddf4f0d	-0.109037496
206	0xbde12bb1	-0.109946616
207	0xbe29c9ba	-0.16580859
208	0xbd60862b	-0.054815453
209	0x3d9388e0	0.07203841
210	0x3e048914	0.12942916
211	0x3dc12767	0.094313435
212	0xbe27b738	-0.16378486
213	0xbdde8a32	-0.108662024
214	0xbcbf4a5d	-0.023350889
215	0x3e453adb	0.19260733
216	0x3d5dfbbf	0.054195162
217	0xbcba4f60	-0.022742927
218	0x3dd9cdac	0.10634932
219	0xbd97066c	-0.07374272
220	0xbddb1459	-0.106972404
221	0x3e29f552	0.16597489
222	0xbd79c535	-0.060979087
223	0xbc482551	-0.012215928
224	0xbe29bfac	-0.16577023
225	0x3e1f2dd2	0.15544823
226	0x3e30a8c4	0.17251879
227	0x3dc65791	0.09684671
228	0xbddc924a	-0.1077009
229	0xbe27748e	-0.16353056
230	0xbe04e9c9	-0.12979807
231	0x3e2e3f2b	0.17016284
232	0x3df3d620	0.119060755
233	0x3e4134f1	0.18867852
234	0x3e029340	0.12751484
235	0x3d9a2d8c	0.075282186
236	0x3cc9c8fc	0.02463197
237	0xbdf599f8	-0.11992258
238	0xbe0dce38	-0.13848197
239	0xbe1d1f45	-0.1534396
240	0x3dd81867	0.105515294
241	0xbd8b1969	-0.06791956
242	0xbc47909f	-0.012180476
243	0xbddcf446	-0.10788779
244	0xbcea5ad1	-0.028607758
245	0xbde045fd	-0.10950849
246	0xbdca2932	-0.09871139
247	0x3db9a48b	0.09064587
248	0xbd2aecda	-0.041729786
249	0x3e088bb7	0.13334547
250	0xbd0fe4cf	-0.03513032
251	0xbdfc1d1a	-0.12310238
252	0xbc3d1c56	-0.0115424
253	0xbd91aa2f	-0.07112538
254	0xbd12a6aa	-0.035803474
255	0xbe2536b2	-0.16134146

enc1.0.bias f4 [16]
0	0xbd71e870	-0.05905956
1	0x3df77b73	0.12084093
2	0xbe00a4e2	-0.12562898
3	0x3e17dcd7	0.14830337
4	0xbd9694af	-0.07352578
5	0x3cfc1f8a	0.030776758
6	0xbc343454	-0.010998804
7	0x3cf1387e	0.029445883
8	0xbd013118	-0.03154096
9	0x3e264d56	0.16240439
10	0x3ca993fd	0.02070045
11	0x3e2c149a	0.16804734
12	0x3e58c77a	0.21169844
13	0xbd884723	-0.06654193
14	0xbde784c4	-0.1130462
15	0x3e3a3dc7	0.18187629

enc1.2.weight f4 [16, 16, 3, 3]
0	0x3dbefcc3	0.09325554
1	0xbd54fbb3	-0.05199785
2	0x3c92ddaa	0.017927963
3	0xbdcbb4ab	-0.09946569
4	0xbd813af0	-0.063100696
5	0x3d0f0eb7	0.034926143
6	0x3d4a0cee	0.049328737
7	0x3d39c568	0.045354277
8	0xbc0a7882	-0.008451583
9	0x3dc64e15	0.09682862
10	0xbc704d9d	-0.014666942
11	0xbcb0f230	-0.021599859
12	0x3c1910ea	0.0093424115
13	0x3d430055	0.04760774
14	0x3d6680ad	0.05627506
15	0xbdad4cb9	-0.08461899
16	0x3d11c6a3	0.035589825
17	0xbd551b11	-0.052027766
18	0xbd9b7e8c	-0.07592496
19	0xbcc9201d	-0.024551446
20	0x3d95f523	0.07322147
21	0x3d938ec5	0.072049655
22	0x3dc28c95	0.0949947
23	0x3d62500b	0.055252116
24	0x3db9c5c4	0.09070924
25	0x3c7e1a8e	0.015509261
26	0xbd2a6f0a	-0.0416098
27	0x3d3aa713	0.04556949
28	0xbd8fab42	-0.07015087
29	0xbd8da8e2	-0.069169775
30	0xbc3cf9a7	-0.011534131
31	0x3d36d580	0.044637203
32	0x3d8efa86	0.06981377
33	0xbd5b095c	-0.053475723
34	0xbd557dae	-0.05212181
35	0xbc71f2af	-0.014767333
36	0xbd6191ce	-0.05507069
37	0xbd2d502f	-0.042312797
38	0x3d0dd7eb	0.034629744
39	0xbca9b37b	-0.020715466
40	0x3d8d6534	0.069040686
41	0x3dc35a0f	0.09538662
42	0x3d35472b	0.044257324
43	0x3c3c2fbc	0.01148599
44	0x3c63730b	0.013882409
45	0x3c18b057	0.009319386
46	0xbc80b9e7	-0.015713645
47	0xbcb16b93	-0.02165774
48	0x3d718688	0.05896619
49	0x3dd78984	0.10524276
50	0x3bc034bf	0.005865663
51	0xbd820081	-0.06347752
52	0xbd2d9624	-0.042379513
53	0xbd227933	-0.039666366
54	0xbc431965	-0.01190791
55	0x3d0fd6c1	0.035116915
56	0x3dbba83f	0.0916295
57	0x3d852b4a	0.06502397
58	0xbd3f7311	-0.046740595
59	0xbc895b0f	-0.016767053
60	0xbd380c9a	-0.044933893
61	0xbd2d2fe3	-0.042281996
62	0x3d0e88ac	0.03479831
63	0xbdd2b27c	-0.102879494
64	0x3b9a3618	0.0047061555
65	0xbdb6142c	-0.08890566
66	0xbccd2fb9	-0.02504717
67	0xbd285d99	-0.041104887
68	0x3dcc5877	0.09977811
69	0xbda43195	-0.080172695
70	0x3d185990	0.03719479
71	0xbcf71e1a	-0.03016572
72	0xbd113d4b	-0.035458844
73	0x3d098168	0.033570677
74	0x3c87e6ae	0.016589489
75	0x3d966cae	0.07344948
76	0x3d1d81da	0.038453914
77	0xbd383c58	-0.044979423
78	0x3c0ba97e	0.008524297
79	0x3d2a8852	0.04163391
80	0x3d3a3022	0.04545606
81	0xbc75cc4a	-0.01500232
82	0x3d4e3514	0.050343588
83	0xbcbdf276	-0.023186903
84	0x3c8841fe	0.01663303
85	0x3dda39f8	0.10655588
86	0x3d08403f	0.033264395
87	0xbceca45d	-0.028886968
88	0xbdd7f901	-0.105455406
89	0x3ca39325	0.019967625
90	0xbd383774	-0.04497476
91	0x3d30e110	0.043183386
92	0xbd9e58fe	-0.07731818
93	0x3caeb0a6	0.021324467
94	0x3b7661b8	0.0037594866
95	0x3d2acbc7	0.041698243
96	0x3d95ec28	0.07320434
97	0xbc7e218c	-0.015510928
98	0x3cb517b5	0.022106031
99	0x3d955873	0.07292261
100	0x3d50fa99	0.05102024
101	0xbb5a92d4	-0.0033351677
102	0xbc265e37	-0.0101542985
103	0x3d88d237	0.0668072
104	0x3baac2c9	0.0052112085
105	0x3d720329	0.059085045
106	0x3bada8f8	0.0052996837
107	0xbcfc3cd2	-0.03079072
108	0x3d6c9347	0.057757642
109	0x3d2350b3	0.039871883
110	0x3d838dbb	0.06423517
111	0x3dad235d	0.08454011
112	0x3cf4bb5c	0.029874496
113	0x3d5ffe1a	0.05468569
114	0xbca80907	-0.020512117
115	0xbd8a414a	-0.06750734
116	0xbd02c33f	-0.031924482
117	0xbce75408	-0.028238311
118	0xbd6c8042	-0.057739504
119	0xbc610bc4	-0.013735715
120	0xbdd18108	-0.10229689
121	0xbdd6460a	-0.10462578
122	0xbd9a3ed4	-0.07531515
123	0xbd5dd2e5	-0.054156203
124	0xbcd3e0c0	-0.025864005
125	0x3d73e05c	0.059540138
126	0x3dbaca41	0.09120608
127	0x3b1868bc	0.0023255786
128	0xbcae5fb0	-0.021285862
129	0x3d937e23	0.07201793
130	0xbd8cc491	-0.068734296
131	0xbd45653b	-0.048192244
132	0x3cf0aafe	0.02937841
133	0xbd9a02b4	-0.07520047
134	0x3d1ab7f7	0.0377731
135	0x3dce853b	0.100840054
136	0x3cf08fd0	0.02936545
137	0xbba06704	-0.004895093
138	0xbcadb4dd	-0.021204406
139	0x3bc1403f	0.0058975513
140	0x3cccb623	0.024989193
141	0xbbfa804c	-0.0076446887
142	0x3b971aed	0.004611364
143	0x3d3ac43e	0.045597307
144	0xbdb57035	-0.088592924
145	0xbcc185e6	-0.023623418
146	0xbc9e112c	-0.019295298
147	0xbd7d42ee	-0.061831407
148	0x3c24fc2d	0.010069889
149	0xbdc8b725	-0.09800557
150	0x3dad9fd5	0.08477751
151	0x3c02d4b5	0.007985284
152	0xbd93f62e	-0.072246894
153	0x3cadcd7a	0.021216143
154	0xbd635b06	-0.05550673
155	0xbd534ad9	-0.051585052
156	0xbd25ead7	-0.040507164
157	0xbd2f29bf	-0.04276442
158	0xbd8dca6c	-0.069233745
159	0x3c6acc05	0.014330869
160	0x3db32d99	0.087489314
161	0x3ddbcaf6	0.10732071
162	0x3cdfd2e4	0.02732224
163	0xbcb833d5	-0.022485653
164	0xbce303c3	-0.027711755
165	0x3dce54f9	0.10074801
166	0x3b120e44	0.0022286335
167	0xbcc5fd29	-0.024168568
168	0x3cd58e38	0.026068792
169	0xbdc139e5	-0.09434871
170	0xbd6165cc	-0.05502872
171	0x3d5c89e1	0.05384243
172	0x3bbb546a	0.00571685
173	0x3cbbf153	0.02294222
174	0xbdc3caeb	-0.09560188
175	0xbca2dfa8	-0.019882038
176	0xbce076fd	-0.027400488
177	0xbcc6ba83	-0.024258858
178	0xbd10b9b9	-0.03533337
179	0x3d7a3d1a	0.061093427
180	0xbdc57318	-0.09641093
181	0x3d3a201c	0.045440778
182	0xbd2987cc	-0.04138927
183	0xbc9d98c1	-0.019237878
184	0x3d48ec2c	0.049053356
185	0x3d81e4b2	0.06342448
186	0xbd3b23d4	-0.045688465
187	0xbc76e868	-0.015070058
188	0xbd6637b1	-0.056205455
189	0xbc724868	-0.014787771
190	0xbdcc5e35	-0.09978906
191	0x3c10f0cc	0.008846473
192	0x3d2a36ca	0.041556157
193	0xbd9b4109	-0.07580764
194	0x3dca030a	0.09863861
195	0x3da3ffdf	0.08007788
196	0xbd5aed34	-0.05344887
197	0xbc456165	-0.012047146
198	0x3d3de975	0.04636522
199	0x3c35d94c	0.011099171
200	0xbd0e16d3	-0.034689736
201	0xbd86e828	-0.06587249
202	0x3dc129eb	0.09431823
203	0xbd6cde39	-0.057829116
204	0x3d28dbb4	0.04122515
205	0x3d08bb6d	0.03338187
206	0x3cde76e4	0.0271563
207	0x3db5bb97	0.088736705
208	0xbce8da33	-0.028424358
209	0xbca4633e	-0.020066854
210	0x3c5c9e6c	0.013465505
211	0x3d231f31	0.03982467
212	0xbdb839d1	-0.089954026
213	0x3d3fd472	0.046833463
214	0xbd6889d6	-0.056772076
215	0x3d2312ac	0.03981273
216	0x3d6d5732	0.057944484
217	0x3d0038e3	0.03130425
218	0x3d812d47	0.06307464
219	0xbce3552c	-0.027750574
220	0x3d9536a8	0.072858155
221	0xbd1fb496	-0.03899058
222	0xbd213e7c	-0.03936623
223	0x3d809263	0.06277921
224	0x3d653647	0.055959966
225	0x3d902ee3	0.07040193
226	0xbd0709c0	-0.032968283
227	0x3d207b8f	0.039180335
228	0x3c0f7432	0.00875573
229	0xbd1a9478	-0.037739247
230	0xbd43914d	-0.04774599
231	0x3c6b847f	0.014374851
232	0x3d7f3370	0.062304914
233	0x3d218ce0	0.03944099
234	0xbd997d97	-0.074946575
235	0xbab623c9	-0.0013896163
236	0xb9ad0c40	-0.00033006258
237	0x3dcc8b4d	0.09987507
238	0xbdc76645	-0.09736303
239	0xbd5aec19	-0.053447817
240	0xbdcc75dd	-0.09983418
241	0xbbb02786	-0.0053758053
242	0x3a9ae37c	0.0011817063
243	0x3d5fa6ad	0.054602314
244	0x3d2b212e	0.04177969
245	0x3ddfc0e9	0.109254666
246	0x3d2d19b0	0.042260826
247	0x3d9b365f	0.0757873
248	0x3dafef49	0.08590562
249	0x3dc786c0	0.097424984
250	0xbca035d6	-0.019556921
251	0x3dba705b	0.09103461
252	0x3d9f4cee	0.07778345
253	0xbcc85a4f	-0.024457125
254	0xbd85def3	-0.06536665
255	0xbd3c65b1	-0.045995418

enc1.2.bias f4 [16]
0	0x3ddc4283	0.107548736
1	0x3d9249f4	0.07143012
2	0x3d88baed	0.06676278
3	0xbc39ba0d	-0.011335862
4	0x3db98270	0.09058082
5	0x3d1078c5	0.035271425
6	0x3d8e7e69	0.069577046
7	0xbbb8a445	-0.005634817
8	0x3da2e312	0.079534665
9	0x3dae41f3	0.085086726
10	0xbd2b7668	-0.041860968
11	0x3db8eb54	0.0902926
12	0xbd61956b	-0.055074137
13	0xbd0ac203	-0.03387643
14	0xbd6d0412	-0.05786521
15	0x3d3003cb	0.042972367

enc2.0.weight f4 [32, 16, 3, 3]
0	0xbd6ef2cc	-0.058337018
1	0xbc9df697	-0.019282622
2	0xbd2f8692	-0.042852946
3	0x3c9394eb	0.018015346
4	0xbdbd9c71	-0.092583545
5	0xbd182528	-0.03714481
6	0xbb40df00	-0.0029429793
7	0x3c582f80	0.013194919
8	0xbcfbedce	-0.030753043
9	0x3cd18dc6	0.025580298
10	0xbd832a9f	-0.06404614
11	0xbd9dc247	-0.07703071
12	0xbcb827ba	-0.02247988
13	0xbd21b74a	-0.03948144
14	0x3d6d79d7	0.057977524
15	0xbd45ea51	-0.048319165
16	0x3bbb07b4	0.0057077054
17	0x3d3e35ca	0.046438016
18	0xbd785369	-0.06062642
19	0x3d8f6db2	0.070033446
20	0xbcdfdb9b	-0.027326396
21	0xbc618e38	-0.013766818
22	0xbd3ebba1	-0.046565656
23	0xbd151ae7	-0.03640261
24	0xbd0c9294	-0.034319475
25	0xbda47d70	-0.08031738
26	0x3cd48751	0.02594343
27	0x3c53edc8	0.012935109
28	0x3db0745f	0.08615946
29	0x3d832a67	0.06404572
30	0x3db232d4	0.08701101
31	0x3cbcff07	0.023070825
32	0x3d2c0579	0.041997407
33	0x3da20876	0.0791177
34	0x3d85cf9f	0.06533741
35	0xbd86e2ff	-0.06586265
36	0xbc5ca12f	-0.013466164
37	0xbda33b32	-0.07970275
38	0x3baf1011	0.0053424914
39	0xbd104e02	-0.035230644
40	0x3d8fcc03	0.07021334
41	0x3c26c009	0.010177621
42	0x3a4261c6	0.0007415082
43	0xbd66bd7c	-0.05633305
44	0xbd601f25	-0.0547172
45	0x3ca41f78	0.020034537
46	0xbcfe0ee7	-0.031012965
47	0xbd0455b5	-0.0323083
48	0x3d89965c	0.06718132
49	0xbd222f40	-0.039595842
50	0xbd2663a2	-0.04062236
51	0x3d7f9995	0.062402327
52	0x3cdb4221	0.026764931
53	0xbd3ffb78	-0.04687068
54	0x3cbc697e	0.022999521
55	0x3d3d31b5	0.046189982
56	0xbd81448a	-0.06311901
57	0x3ce67f79	0.028136956
58	0x3c903b1c	0.01760631
59	0x3bdcf3de	0.0067429384
60	0x3db0bdff	0.08629989
61	0xbd681721	-0.056662682
62	0x3d3a206c	0.045441076
63	0xbd50801d	-0.05090343
64	0xbd7d1ee5	-0.06179704
65	0x3d7746a4	0.060370103
66	0xbd1854be	-0.03719019
67	0x3c52ab92	0.012858288
68	0x3d5680ca	0.052368917
69	0xbd74a86f	-0.059730943
70	0xbd889f4c	-0.066710085
71	0x3cf9b896	0.030483525
72	0x3d92865e	0.07154535
73	0xbc3e0161	-0.011597008
74	0x3d7bb45f	0.061451312
75	0x3cf8bef8	0.030364498
76	0x3c80f59d	0.015742118
77	0xbd2fa825	-0.042884964
78	0x3d9598e4	0.07304552
79	0x3d315670	0.043295324
80	0x3c9d01da	0.019165922
81	0x3d864f01	0.065580375
82	0xbd8c2017	-0.06842058
83	0x3cd1bfff	0.025604246
84	0xbd0c4cce	-0.034252934
85	0xbb8e5ee4	-0.004344808
86	0x3cdf4a40	0.027257085
87	0x3d16917a	0.03675983
88	0x3c7a4754	0.015275795
89	0xbd9332c2	-0.07187416
90	0xbd31c974	-0.04340501
91	0x3b0d94ad	0.002160351
92	0xbc5750b1	-0.013141797
93	0xbd943180	-0.07236004
94	0x3daf83c9	0.08570058
95	0x3c02b65d	0.007978049
96	0xbd7ecd44	-0.062207475
97	0x3d1ed0a3	0.03877319
98	0x3d3d2fd9	0.04618821
99	0xbce4b46c	-0.027918063
100	0x3d4d1bda	0.05007539
101	0xbd3a90b5	-0.04554816
102	0x3c8e6f62	0.017387096
103	0x3d92d2ed	0.07169137
104	0x3d67c8f2	0.05658812
105	0x3d3b66f1	0.04575247
106	0xbc2f8dfa	-0.010715002
107	0x3ca63a80	0.020291567
108	0x3cee3a30	0.02908048
109	0x3ca6bd3b	0.020353904
110	0xbc8a4d8b	-0.016882678
111	0x3c3e804b	0.011627267
112	0xbd0a4028	-0.03375259
113	0xbd40f1cb	-0.04710559
114	0xbd9d7f56	-0.07690303
115	0xbd8b2563	-0.0679424
116	0xbd564298	-0.052309602
117	0x3db2c21b	0.08728429
118	0x3c7cdfda	0.01543423
119	0xbd894c68	-0.067040265
120	0xbd1a787c	-0.03771256
121	0x3cd467fc	0.02592849
122	0xbc8c9929	-0.017162876
123	0xbca2659f	-0.019823847
124	0xbce25fd1	-0.02763358
125	0xbc873023	-0.016502446
126	0x3c22b24d	0.0099302055
127	0x3b8a15e8	0.004214037
128	0x3d7e14a0	0.06203139
129	0x3d65e248	0.056124
130	0x3d9de097	0.07708853
131	0x3bcba13f	0.0062142904
132	0xbcb8d8a3	-0.022564238
133	0x3bbbfc85	0.00573689
134	0xbd343a1b	-0.044000726
135	0x3d04bf72	0.03240914
136	0xbc523ec2	-0.012832345
137	0xbc99c77e	-0.018771883
138	0xbd7a899c	-0.06116639
139	0x3d30865f	0.043096896
140	0x3d504131	0.05084342
141	0x3da807d0	0.08204615
142	0xbd1938a3	-0.03740753
143	0x3ce6576f	0.028117863
144	0x3b531bc6	0.00322126
145	0xbd50b612	-0.050954886
146	0xbd42fe18	-0.047605604
147	0x3d108ea4	0.035292283
148	0xbd44316c	-0.047898695
149	0x3d8cd296	0.068761036
150	0x3cdc4d9a	0.026892472
151	0x3cdd5043	0.02701581
152	0x3d83bb35	0.06432191
153	0x3d12d566	0.035848044
154	0x3d1a503c	0.037674174
155	0x3d465b23	0.04842676
156	0xbd3bc33c	-0.045840487
157	0xbd54772f	-0.051871475
158	0x3b59a733	0.003321123
159	0x3d599dd4	0.053129032
160	0x3d5cd967	0.05391827
161	0x3d6c6619	0.057714555
162	0xbc3d5601	-0.011556149
163	0x3ad4a32c	0.0016222945
164	0xbd891f55	-0.06695429
165	0x3d6ab92e	0.057305507
166	0xbd390d47	-0.045178678
167	0xbd0e6e3b	-0.034773093
168	0x3d98d049	0.07461602
169	0x3cab39ac	0.020901524
170	0xbcec046e	-0.028810706
171	0xbd215080	-0.03938341
172	0xbd378f64	-0.044814482
173	0x3d813f81	0.063109405
174	0xbd85af54	-0.06527582
175	0x3dae066b	0.08497318
176	0x3d529396	0.05141028
177	0x3c1791bb	0.009251053
178	0x3c30e558	0.010796867
179	0x3d91c5d5	0.071178116
180	0x3d149a35	0.036279876
181	0x3da9b5df	0.08286642
182	0x3d993874	0.07481471
183	0xbd5d2ddb	-0.05399881
184	0x3d498258	0.04919657
185	0x3d425ab5	0.047449786
186	0xbd76fe16	-0.06030091
187	0x3d2e1b40	0.042506456
188	0xbd0fafb8	-0.035079688
189	0xbd31cbf4	-0.043407395
190	0x3bc28e03	0.0059373393
191	0xbc77dba4	-0.01512805
192	0xbc8daf32	-0.017295454
193	0xbd3ab278	-0.045580357
194	0x3d3530f0	0.044236124
195	0x3da76f4c	0.08175525
196	0xbc9173b1	-0.017755361
197	0xbd5daf36	-0.054122172
198	0x395830ec	0.0002061759
199	0xbda9cf81	-0.08291531
200	0xbd8dcd5b	-0.06923934
201	0xbc8e6c2a	-0.017385561
202	0x3d3fbf51	0.046813313
203	0xbd9a55ab	-0.07535871
204	0xbb89fe98	-0.004211258
205	0xbd167f41	-0.036742453
206	0xbdb55442	-0.088539615
207	0xbc76d21e	-0.015064744
208	0xbb113911	-0.0022159258
209	0xbbb57369	-0.0055374396
210	0x3d8c172b	0.068403564
211	0x3d0a2074	0.033722356
212	0x3d5bb630	0.053640544
213	0x3d2fe559	0.042943332
214	0x3c2997d6	0.010351142
215	0x3d10510b	0.03523354
216	0xbd46cf23	-0.048537385
217	0x3d198a39	0.037485335
218	0x3d2c40a8	0.04205385
219	0xbd0bff94	-0.034179285
220	0x3a44ab84	0.00075023645
221	0xbd75de27	-0.060026314
222	0xbd9ad9c0	-0.07561064
223	0x3b6b4392	0.003589843
224	0x3cb182c9	0.021668809
225	0xbb890f3c	-0.0041827243
226	0x3d0ba832	0.03409595
227	0xbda20535	-0.079111494
228	0xbd0afbc8	-0.033931524
229	0x3d886b4f	0.066610925
230	0xbdc7c0e3	-0.09753587
231	0x3cb8b813	0.02254871
232	0x3d8b7351	0.06809104
233	0x3d831cf8	0.0640201
234	0x3d0dbef3	0.03460593
235	0xbd8c3dd0	-0.06847727
236	0x3c3f4772	0.011674749
237	0xbceb5cb7	-0.028730733
238	0xbca19caf	-0.019728033
239	0x3d9d0122	0.07666232
240	0xbc9353c1	-0.017984273
241	0xbd656a47	-0.056009557
242	0xbd806ad0	-0.06270373
243	0x3d6a75fe	0.057241432
244	0x3c37be9d	0.011214879
245	0x3da6fc6d	0.08153615
246	0x3c2347f5	0.009965886
247	0xbd97f6e0	-0.074201345
248	0x3d146030	0.036224544
249	0x3da1b5af	0.078959815
250	0x3d3fe839	0.046852324
251	0x3d2192aa	0.03944651
252	0xbd8038fa	-0.062608674
253	0xbd4cacde	-0.049969546
254	0x3d67c52e	0.05658453
255	0xbd643c38	-0.05572149

enc2.0.bias f4 [32]
0	0x3d95a659	0.07307119
1	0xbc32cb33	-0.010912704
2	0x3d8dac38	0.06917614
3	0x3d86b52b	0.06577524
4	0x3d13ce49	0.0360854
5	0xbcb8a04b	-0.022537371
6	0xbcc7726f	-0.024346558
7	0xbcbcf3d6	-0.023065489
8	0xbb9ed619	-0.0048473
9	0xbc364273	-0.011124241
10	0xbd94cc08	-0.072654784
11	0xbd6a1c26	-0.05715575
12	0xbd040937	-0.03223535
13	0x3d864aa8	0.06557208
14	0x3d0ed02b	0.034866493
15	0xbd94cae9	-0.072652645
16	0xbd6e9ea7	-0.05825677
17	0xbd6a95ad	-0.05727165
18	0x3da9a96f	0.0828427
19	0x3c61696f	0.0137580475
20	0x3d87490e	0.06605731
21	0xbd7c02cf	-0.061526116
22	0x3d91ff3e	0.07128762
23	0x3d82785e	0.063706145
24	0xbb094174	-0.0020943554
25	0xbd31fc00	-0.043453217
26	0x3d054e09	0.032545123
27	0xbd371dce	-0.04470616
28	0xbd25747d	-0.040394295
29	0x3d06ecea	0.032940783
30	0xbd81214b	-0.06305178
31	0x3c8a04b9	0.016847955

enc2.2.weight f4 [32, 32, 3, 3]
0	0xbb06bff2	-0.0020561186
1	0xbc055497	-0.008137844
2	0xbbb98f22	-0.0056628147
3	0x3bc5ffc0	0.0060424507
4	0xbd30cf5c	-0.043166503
5	0x3cb40339	0.021974193
6	0xbd835856	-0.06413333
7	0x3c8a2822	0.01686484
8	0xbd60f721	-0.05492318
9	0x3d443c82	0.047909267
10	0x3b88eaf9	0.0041784015
11	0x3c072778	0.008249156
12	0x3bd175e5	0.006392228
13	0x3ac0a561	0.0014697724
14	0xbd01378d	-0.031547118
15	0xbd81212c	-0.06305155
16	0x3cccc4d5	0.0249962
17	0x3cdd9932	0.027050588
18	0xbc962ee5	-0.018332908
19	0xbb916935	-0.0044375905
20	0xbc37c277	-0.011215798
21	0xbc9deb66	-0.019277286
22	0x3d3ff713	0.046866488
23	0xbd2edd50	-0.04269153
24	0xbd616e78	-0.05503699
25	0xbc582298	-0.013191842
26	0xbd25f460	-0.040516257
27	0xbd47464a	-0.048651017
28	0xbce08efe	-0.027411934
29	0xbc46ba64	-0.0121294
30	0x3cf2f156	0.029656094
31	0x3cbacc68	0.022802547
32	0x3d1d9913	0.03847606
33	0x3d09ff61	0.033690814
34	0x3bf05ac3	0.0073350384
35	0xbc23482c	-0.009965938
36	0xbc309f58	-0.010780178
37	0xbd56819b	-0.052369695
38	0xbb7818c2	-0.0037856554
39	0xbcb25b54	-0.021772064
40	0xbcc6d5f8	-0.02427195
41	0x3d2fda3d	0.042932738
42	0x3c95ee1f	0.018302022
43	0x3ce04e17	0.027380986
44	0x3cfca47c	0.030840151
45	0xbd0bbeb3	-0.03411741
46	0x3c8b4ed0	0.017005354
47	0xbbf237ba	-0.007391897
48	0x3ca87631	0.02056417
49	0x3d0de5e5	0.034643073
50	0xbc725a2b	-0.0147920055
51	0x3d351daf	0.04421776
52	0x3b216feb	0.0024633359
53	0xbc37afd7	-0.011211357
54	0x3d1da18d	0.038484145
55	0x3d1e3e58	0.038633674
56	0xbcd3a3b6	-0.0258349
57	0x3d0521a8	0.0325028
58	0xbcb73e26	-0.022368502
59	0xbb931cc9	-0.0044895154
60	0xbd4a0045	-0.049316663
61	0xbd0b143e	-0.03395485
62	0x3aa61902	0.0012672248
63	0xbcb8de11	-0.022566827
64	0xbc659a98	-0.014013909
65	0x3c20be8e	0.009811057
66	0xbd035ffb	-0.032073956
67	0x3cb7ef1d	0.022452885
68	0x3d8120c5	0.063050784
69	0x3d238631	0.039922897
70	0x3d311aa4	0.043238297
71	0xbca3fcc7	-0.020017995
72	0xbbe99052	-0.0071278
73	0xbcee5bc8	-0.0290965
74	0xbd1ba488	-0.037998706
75	0xbc9f7b85	-0.019468078
76	0x3cd5f105	0.026115904
77	0xbd85713d	-0.06515739
78	0xbd1a10f5	-0.037613828
79	0x3ca800a0	0.02050811
80	0x3caa6f9c	0.020805173
81	0xbc76e125	-0.015068327
82	0xbc5b25e3	-0.013375732
83	0xbc06569c	-0.00819936
84	0x3d2ec299	0.04266605
85	0x3d2e9291	0.042620245
86	0xbce16e32	-0.027518366
87	0x3c1fdc25	0.009757076
88	0xbd69704c	-0.05699186
89	0xbd1f57a5	-0.038901944
90	0xbbb257fd	-0.005442618
91	0xbca39bcf	-0.019971756
92	0xbce27cb0	-0.027647346
93	0x3d46952b	0.0484821
94	0x3cee691f	0.02910286
95	0x3b94185b	0.004519505
96	0xbc8f005c	-0.017456226
97	0x39e8e91c	0.00044424168
98	0x3d451f5e	0.048125617
99	0xbc34451e	-0.011002807
100	0x3b931b91	0.00448937
101	0x3c95821d	0.01825052
102	0x3d0ef0f4	0.03489776
103	0x3d13d4d5	0.036091644
104	0xbce1fffe	-0.027587887
105	0x3cbdbbaa	0.023160774
106	0x3c199a79	0.009375208
107	0x3c0b14d4	0.0084888525
108	0xbd4d9711	-0.050192896
109	0x3d599148	0.053117067
110	0x3cdcb79e	0.026943024
111	0x3be57568	0.0070025213
112	0x3cb55bdb	0.022138527
113	0xbc5e94d2	-0.013585286
114	0xbd297ffb	-0.041381817
115	0xbc78ee21	-0.015193493
116	0xbd57c75f	-0.05268037
117	0x3d26c71e	0.040717237
118	0x3c804227	0.015656544
119	0x3bafece0	0.005368814
120	0xbd4d4f85	-0.050124664
121	0xbd4619c7	-0.048364427
122	0x3cc0add9	0.023520397
123	0xbd6c98b3	-0.057762813
124	0x3b098cd7	0.0020988488
125	0x3d0b488f	0.034004744
126	0xbd7c0afd	-0.061533917
127	0x3d01dce8	0.031704813
128	0xbd6469fc	-0.055765137
129	0xbcb224f5	-0.021746138
130	0x3cfeb67e	0.031092878
131	0x3d182a8f	0.037149962
132	0x3d31663d	0.043310393
133	0x3d222e73	0.03959508
134	0xbd865e47	-0.06560951
135	0x3c4f17bd	0.012639937
136	0xbd7646ee	-0.060126238
137	0x3ce07822	0.027401034
138	0x3c630ca1	0.013857991
139	0x3d1cefe1	0.038314704
140	0x3c10cac2	0.008837404
141	0x3d064d88	0.032788783
142	0xbc160a8d	-0.009157789
143	0xbd409c0f	-0.04702383
144	0xbd4865e4	-0.048925295
145	0x39f74d7b	0.0004716924
146	0xbd7b7095	-0.061386663
147	0x3d2573ae	0.040393524
148	0xbd256c11	-0.040386263
149	0xbd5bc8d2	-0.053658314
150	0x3d4ba470	0.049717367
151	0xbd3ff814	-0.046867445
152	0xbd0d0d04	-0.03443624
153	0x3a89f1ef	0.0010524372
154	0x3c99df1d	0.018783147
155	0xbcacd46b	-0.021097383
156	0x3d0130da	0.03154073
157	0xbd1a9e99	-0.037748907
158	0x3c3bf4c3	0.01147193
159	0xbd6d7a86	-0.057978176
160	0xbd58d50f	-0.052937564
161	0x3caaf7b7	0.020870073
162	0x3c999dc2	0.018751983
163	0xbd1311c2	-0.035905607
164	0x3c3b3d0a	0.011428127
165	0xbc9a2fa1	-0.01882154
166	0x3cbc833f	0.023011802
167	0xbb6c1dea	-0.0036028572
168	0xbcb3bd1a	-0.021940757
169	0x3b2ff583	0.0026849217
170	0xbd86257e	-0.0655012
171	0x3cb9bab2	0.022672031
172	0x3d353897	0.04424342
173	0x3d265bbc	0.04061483
174	0xbd347eb4	-0.044066146
175	0xbd06b150	-0.032883942
176	0xbd136af4	-0.03599067
177	0xba969b85	-0.001149044
178	0xbd4daa72	-0.050211377
179	0xbd5b4f31	-0.05354232
180	0xbd054dfc	-0.032545075
181	0x3d2cabb8	0.04215595
182	0x3bb1c8c9	0.005425547
183	0xbd7ff8cd	-0.062493134
184	0xbd1195f2	-0.03554339
185	0xbd532341	-0.051547293
186	0xbc5746bb	-0.013139422
187	0xbbe47cae	-0.006972871
188	0xbd46f913	-0.04857738
189	0xbd590582	-0.05298377
190	0xbca1a1f4	-0.019730546
191	0xba1ad872	-0.00059068867
192	0x3d0ddf7f	0.03463697
193	0x3c7599cd	0.014990282
194	0xbd2ade8e	-0.04171615
195	0xbd7ce245	-0.061739225
196	0x3c00ff2a	0.007873336
197	0xbc88c659	-0.016696142
198	0x3d06778d	0.032828856
199	0xbd3d6d3c	-0.046246752
200	0xbbfe3634	-0.0077579264
201	0xbd534fee	-0.0515899
202	0xbd10dcee	-0.035366945
203	0xbd2076b6	-0.03917571
204	0xbc8d972c	-0.017283998
205	0xbc379203	-0.0112042455
206	0x3d40733c	0.046984896
207	0x3d33d0bb	0.043900233
208	0x3d1bccf1	0.038037244
209	0x3be1fac3	0.006896348
210	0xbbf84330	-0.0075763687
211	0x3d406d05	0.04697897
212	0xbd4abd76	-0.04949709
213	0xbd81819f	-0.063235514
214	0xbcfbbc7a	-0.030729521
215	0x3d32e532	0.04367561
216	0x3d60276a	0.05472509
217	0xbcd543cb	-0.026033303
218	0xbd282eb9	-0.041060183
219	0xbd5e0cb3	-0.05421133
220	0x3cdd23be	0.026994582
221	0xbcc8e39c	-0.024522595
222	0x3d301752	0.04299099
223	0xbcb8e555	-0.022570292
224	0x3d5b0d48	0.053479463
225	0x3d1cbdc6	0.03826692
226	0x3d21ae35	0.039472777
227	0x3cfc6dd1	0.030814083
228	0xbd463e09	-0.048399005
229	0x3bf9b7bf	0.007620781
230	0xbd0e222c	-0.034700558
231	0xbc926f16	-0.017875236
232	0x3d12e854	0.035866097
233	0xbcf178a1	-0.029476466
234	0x3ceee897	0.029163642
235	0xbbd79649	-0.0065791947
236	0xbd1c4588	-0.038152248
237	0xbd180111	-0.037110392
238	0xbd83dbdb	-0.064384185
239	0x3c37f4a8	0.011227764
240	0xbbb1d330	-0.005426787
241	0x3d2e1c19	0.042507265
242	0x3c3580d5	0.011078079
243	0x3c133dd5	0.00898691
244	0xbc3e5e1f	-0.01161912
245	0x3c911ffc	0.017715447
246	0xbc90cce6	-0.017675828
247	0x3c69b8e9	0.014265277
248	0xbd181167	-0.03712597
249	0x3d06c92c	0.032906696
250	0x3bc25f9a	0.0059318068
251	0x3caeaaf1	0.021321746
252	0x3b8265ec	0.003979435
253	0x3ce51b50	0.027967125
254	0x3d5a2031	0.053253356
255	0x3c149154	0.009067852

enc2.2.bias f4 [32]
0	0xbc6b4e05	-0.014361863
1	0xbcd6e740	-0.026233315
2	0x3d4b1a7b	0.0495858
3	0xbd4b3e47	-0.04961994
4	0xbcfa66f2	-0.030566666
5	0xbd49efb9	-0.049300883
6	0xba31d240	-0.0006783344
7	0x3c7b31df	0.015331714
8	0x3d2b69f0	0.041849077
9	0xbd20c8c7	-0.039253976
10	0xbd3944bb	-0.045231562
11	0x3d465934	0.048424914
12	0x3bbc5e2a	0.00574853
13	0xbd0e6e82	-0.034773357
14	0x3cee197a	0.029064883
15	0x3d704dbb	0.05866788
16	0x3b7ecbf4	0.003887889
17	0xbc9da919	-0.019245671
18	0xbd010939	-0.031502936
19	0xbc731168	-0.014835693
20	0x3c9d238a	0.019181985
21	0xbd342be1	-0.04398716
22	0x3d60e870	0.05490917
23	0xbcedf627	-0.029048039
24	0x3c9297e0	0.017894685
25	0x3d7de6dd	0.061987747
26	0xbd11c138	-0.03558466
27	0xbd4213da	-0.047382213
28	0xbcdbe8f1	-0.026844474
29	0xbc95fa54	-0.018307842
30	0xbd318d73	-0.043347787
31	0xbd6a59cd	-0.057214547

bot.0.weight f4 [64, 32, 3, 3]
0	0xbcfe1396	-0.031015199
1	0xbcb32bd1	-0.02187148
2	0x3d51fea0	0.05126822
3	0xbc4ee633	-0.012628126
4	0x3bba53b4	0.0056862477
5	0xbc8e674c	-0.01738324
6	0x3bf7862a	0.0075538354
7	0x3cddf60c	0.027094863
8	0x3c12f0c1	0.008968533
9	0xbba15506	-0.0049234657
10	0x3bdbd4fb	0.006708739
11	0x3d601012	0.054702826
12	0xbd191d03	-0.037381183
13	0x3d72e24f	0.059297856
14	0xbc32c0e0	-0.010910243
15	0x3d32fc96	0.043697916
16	0x3d436724	0.047705784
17	0x3b0bca2d	0.0021330223
18	0x3b22f9f5	0.0024868224
19	0x3d2977c7	0.041373994
20	0xbba9d38a	-0.005182688
21	0x3c9b4501	0.018953802
22	0x3d78c32b	0.060733
23	0xbc26c472	-0.010178672
24	0xbca4e3bb	-0.020128122
25	0x3d3e5996	0.046472155
26	0x3d630f86	0.055434726
27	0x3d677739	0.056510184
28	0xbd63bc78	-0.05559966
29	0x3d1ef47a	0.03880737
30	0x3ced8a94	0.028996743
31	0xbd1a15e6	-0.03761854
32	0x3d1d99f1	0.038476888
33	0xbd0189b8	-0.03162548
34	0x3cff52bb	0.031167379
35	0x3ba59c65	0.005054044
36	0x3c9452c3	0.01810587
37	0xbd1a99c8	-0.037744313
38	0xbc525672	-0.012837993
39	0xbd0ac87e	-0.03388261
40	0x3cf9a90f	0.030476121
41	0xbd4541c7	-0.048158433
42	0x3b3e26b2	0.0029014763
43	0x3cade277	0.02122615
44	0xbb2e8b2b	-0.0026633244
45	0xbc94b6e1	-0.01815361
46	0x3c67c637	0.014146379
47	0x3bb76ff0	0.005598061
48	0xbd02434f	-0.03180247
49	0xbc74a5b3	-0.014932084
50	0xbc6fd2ac	-0.01463763
51	0xbd0dd6c5	-0.03462865
52	0xb98886e8	-0.00026040454
53	0xbc983292	-0.018578801
54	0xbcdfe47e	-0.027330633
55	0xbd26ea9f	-0.040751096
56	0xbd0260a8	-0.03183046
57	0xbc5f313a	-0.013622576
58	0x3d57b835	0.052665908
59	0xbb23c5c9	-0.0024989715
60	0xbce6ab79	-0.028157936
61	0xbd45dadf	-0.048304435
62	0x3c08dd02	0.008353474
63	0x3d502383	0.050815117
64	0xbd558767	-0.052131083
65	0x3d37caa2	0.04487098
66	0x3d54f3bd	0.05199026
67	0x3c4c6e88	0.012477525
68	0x3cf207d9	0.029544758
69	0x3c8ec96c	0.01743003
70	0xbd4c78dd	-0.04991995
71	0xbcb91279	-0.022591816
72	0xbc43c649	-0.01194913
73	0xbd087701	-0.033316616
74	0xb946bcd6	-0.00018953098
75	0x3c60c5d7	0.013719044
76	0x3b571e0d	0.0032824308
77	0x3d0b1867	0.03395882
78	0xbd0b5854	-0.034019783
79	0x3d525f8f	0.051360663
80	0xbcb6a229	-0.02229412
81	0x3d453211	0.04814345
82	0x3d5dfda0	0.054196954
83	0xbd452e92	-0.048140116
84	0xbd66c406	-0.056339286
85	0x3d35755f	0.044301387
86	0x3d37bd1e	0.04485809
87	0xbbe6ecea	-0.0070472853
88	0x3c5330e9	0.012890079
89	0x3c0e5390	0.008686915
90	0xbc937aaf	-0.018002836
91	0x3cff6918	0.031178042
92	0x3ca4f991	0.020138534
93	0xbd683ae4	-0.056696787
94	0xbc827e7f	-0.015929459
95	0xbd0e3165	-0.034715075
96	0x3cd02fa7	0.025413347
97	0xbd703813	-0.058647227
98	0xbd4de490	-0.050266802
99	0xbd4edbff	-0.050502773
100	0xbcaaa93f	-0.020832656
101	0xbd3a81bb	-0.045533877
102	0xbc5a45b1	-0.01332228
103	0xbd0c47da	-0.03424821
104	0x3d180de4	0.037122622
105	0x3d5271f0	0.05137819
106	0x3cb0db27	0.021588875
107	0xbcc0e60c	-0.023547195
108	0x3cc7256b	0.024309834
109	0xbd4ab3cd	-0.049487878
110	0xbcd4cea5	-0.025977442
111	0xbbd0c54e	-0.006371177
112	0xbd4147dc	-0.04718767
113	0x3d731c04	0.05935289
114	0x3d07ebc5	0.03318383
115	0x3cba1c67	0.022718621
116	0x3cef63f9	0.029222475
117	0x3d65a139	0.056061957
118	0xbcd26a5d	-0.025685484
119	0x3c3628f2	0.011118161
120	0xbcbc6ce7	-0.023001147
121	0xbc599e52	-0.013282375
122	0xbd3b5ecb	-0.0457447
123	0x3d12e198	0.035859674
124	0xbd1ce0c4	-0.03830029
125	0xbcca10b6	-0.024666172
126	0x3d56e010	0.052459776
127	0xbd067a28	-0.03283134
128	0x3c2eb77f	0.010663866
129	0xbd5f20c6	-0.054474615
130	0xbd00bdb1	-0.031430904
131	0x3d48131e	0.048846357
132	0x3cf52439	0.029924499
133	0xbb8b8f36	-0.0042590154
134	0xbcf78e57	-0.03021924
135	0x3d461a65	0.048365016
136	0x3d6e6d75	0.058209855
137	0x3c6c3274	0.014416326
138	0xbd2d5622	-0.04231847
139	0xbb872ab8	-0.0041249655
140	0x3cdb8985	0.026798973
141	0x3c9db504	0.019251354
142	0x3d7bda7e	0.061487667
143	0x3d6215cd	0.055196572
144	0x3cf481dc	0.029847078
145	0xbd2845ac	-0.04108207
146	0xbb5ac0a1	-0.0033378976
147	0x3c3ac32f	0.011399074
148	0xbc9fbacb	-0.01949825
149	0x3c8fd25a	0.017556358
150	0x3d1d9436	0.038471423
151	0xbd027584	-0.031850353
152	0xbc932786	-0.017963182
153	0xbd452082	-0.048126705
154	0x3bc7549d	0.0060830847
155	0x3d24662f	0.040136512
156	0x3d770fb2	0.060317703
157	0x3c84db78	0.016217932
158	0x3d3901e9	0.045167837
159	0xbd4b4972	-0.04963059
160	0xbc33f674	-0.010984052
161	0xbc89c2a7	-0.01681645
162	0xbcde4b69	-0.027135568
163	0x3d5f6fb6	0.054549895
164	0x3d16b693	0.03679521
165	0xbd492306	-0.049105667
166	0xbd5b2e71	-0.053511087
167	0xbce2239d	-0.027604872
168	0x3ca3dc23	0.02000243
169	0x3ce50423	0.027956074
170	0x3cf9e2dc	0.030503683
171	0x3d3c3eaf	0.045958217
172	0xbd25d52d	-0.040486503
173	0x3b62afcb	0.0034589644
174	0xbd000224	-0.03125204
175	0xbd038508	-0.03210929
176	0x3b049e58	0.0020235982
177	0xbb0dbbda	-0.002162686
178	0xbd16a384	-0.036777034
179	0x3bb7a6be	0.005604594
180	0x3cd9cd84	0.026587255
181	0x3d514cba	0.051098563
182	0xbc85e544	-0.016344674
183	0x3d1afec3	0.037840616
184	0xbc73129b	-0.014835979
185	0xbd36e36f	-0.04465049
186	0x3d4741b0	0.04864663
187	0xbc875300	-0.01651907
188	0xbc834ef2	-0.016028855
189	0xbc233fcf	-0.009963944
190	0x3d59875d	0.053107608
191	0xbcce278c	-0.025165342
192	0xbc7fb139	-0.015606218
193	0x3b631970	0.0034652613
194	0xbd1e0533	-0.038579177
195	0x3cbc4840	0.02298367
196	0x3d4b04e7	0.049565222
197	0x3cae7f9b	0.021301081
198	0xbc49cd14	-0.012316961
199	0xbc35aca4	-0.011088524
200	0xbd674b1c	-0.056468114
201	0xbd443204	-0.04789926
202	0xbc8ea5ad	-0.017412985
203	0x3d06a328	0.03287044
204	0x3d66952b	0.0562946
205	0x3a9959a6	0.0011699691
206	0xbb627964	-0.0034557218
207	0x3d2de92c	0.0424587
208	0xbc3949e8	-0.0113091245
209	0xbd19bc21	-0.03753293
210	0x3d0ac762	0.033881553
211	0xbcad9613	-0.021189725
212	0xbd1702df	-0.036867972
213	0x3ad6aa2f	0.0016377623
214	0xbd018154	-0.031617478
215	0xbd30c18c	-0.04315333
216	0xbd035108	-0.0320597
217	0xbbfaf7de	-0.0076589426
218	0x3ca187aa	0.01971801
219	0xbd013070	-0.031540334
220	0xbd78ccf5	-0.060742337
221	0xbca063ec	-0.019578896
222	0x3d63d9dd	0.055627692
223	0xbc30b1dc	-0.0107845925
224	0xbd39e4bd	-0.045384157
225	0xbca47f2f	-0.020080177
226	0x3d558af4	0.05213447
227	0x3c2de76f	0.01061426
228	0xbbe9ee5a	-0.0071390094
229	0x3d70b95a	0.058770515
230	0x3bfc253d	0.007694869
231	0x3c1b66cc	0.009484958
232	0x3d7d8f72	0.06190438
233	0xbbd036c3	-0.0063541844
234	0xbc2a0fb6	-0.010379722
235	0x3d411ec9	0.0471485
236	0x3c990661	0.0186798
237	0xbd2536be	-0.04033541
238	0x3d1accac	0.037792847
239	0xbcc410ce	-0.023933794
240	0xbd4c6dbe	-0.049909346
241	0x3d586a6a	0.05283586
242	0xbd2f1fb7	-0.042754855
243	0xbcccd2d1	-0.025002869
244	0xbc1725bd	-0.009225306
245	0xb8eea802	-0.00011380018
246	0xbbd8b017	-0.0066127884
247	0x3d34b46a	0.04411737
248	0x3d34bf80	0.04412794
249	0xbd562a2e	-0.05228632
250	0xbd5f9d07	-0.054593112
251	0xbd6b7791	-0.057487074
252	0x3d4c314a	0.049851693
253	0xbbf09b53	-0.007342735
254	0xbce49b51	-0.027906092
255	0xbd1e0a3d	-0.038583983

bot.0.bias f4 [64]
0	0x3cad8b4e	0.02118459
1	0x3c4bd648	0.012441225
2	0x3cb680d8	0.022278234
3	0x3cf5f4b6	0.030023914
4	0x3d1e065e	0.03858029
5	0x3d5c79bd	0.053827036
6	0xbbd8d669	-0.0066173566
7	0x3d710090	0.058838427
8	0xbc588a58	-0.0132165775
9	0x3d2896c1	0.041159395
10	0x3d1bbdbe	0.03802275
11	0xbcad8172	-0.021179888
12	0xbc962573	-0.018328404
13	0xbd4dbb27	-0.05022731
14	0x3c0022b6	0.007820776
15	0xbc9108e4	-0.017704435
16	0x3cd3b7ab	0.025844416
17	0x3d295316	0.041339003
18	0x3d428530	0.0474903
19	0xbc44e963	-0.012018534
20	0x3d21308a	0.03935293
21	0xbca9bcb1	-0.020719858
22	0xbc06e4f4	-0.008233298
23	0xbced0ad0	-0.02893582
24	0x3d50a2f4	0.050936654
25	0x3b87623a	0.0041315826
26	0xbb0dd9e0	-0.0021644756
27	0xbcb4dc28	-0.022077635
28	0x3d045c84	0.032314792
29	0xb9dbbc52	-0.00041911245
30	0x3d03e44b	0.03220014
31	0xbd3b65bd	-0.045751322
32	0xbd3f5052	-0.04670746
33	0xbc4b8952	-0.012422876
34	0x3d634539	0.055485938
35	0xbd422bc4	-0.04740502
36	0x3ce50a87	0.027959121
37	0xbc8e53f9	-0.017374026
38	0x3c5125e6	0.012765383
39	0xbd4016b7	-0.046896663
40	0x3ceb657c	0.028734915
41	0x3bf70b9f	0.007539227
42	0xbd352c34	-0.04423161
43	0x3d272354	0.040805176
44	0xbbdb481f	-0.006691947
45	0xbc8ee705	-0.017444143
46	0xbd4512d9	-0.048113678
47	0x3c8d2eb7	0.01723419
48	0x3d027512	0.03184993
49	0xbd00c5e9	-0.03143874
50	0x3d4b4bfa	0.049633004
51	0x3c3130ab	0.010814826
52	0xbc9a1448	-0.018808499
53	0x3cd58b64	0.026067443
54	0xbc1f2740	-0.009713948
55	0x3c254bb0	0.010088846
56	0x3d04bb8e	0.03240543
57	0xbd57e3e7	-0.05270758
58	0x3d47732b	0.048693817
59	0x3d525abd	0.051356066
60	0x3c2e640f	0.010643973
61	0xbd5c3b22	-0.05376733
62	0x3c76cef3	0.015063989
63	0x3cdc8e7c	0.02692341

up2.weight f4 [64, 32, 2, 2]
0	0xbd6ffb0b	-0.058589023
1	0x3da5e04a	0.0809942
2	0x3c9fc0aa	0.01950105
3	0xbca76229	-0.020432549
4	0xbd6c46a8	-0.05768457
5	0xbda6f048	-0.08151299
6	0xbd7bf646	-0.06151416
7	0x3d715b9b	0.058925252
8	0xbd27320b	-0.04081921
9	0xbd7cf71a	-0.061759092
10	0xbc8f01d2	-0.017456923
11	0x3d72608a	0.059174098
12	0xbd915dc7	-0.07097965
13	0xbbf52a2b	-0.0074818335
14	0xbacb1eca	-0.0015496847
15	0x3cb644e5	0.022249648
16	0xbd89d6ac	-0.067303985
17	0xbc863336	-0.016381841
18	0x3d8f3c39	0.069939084
19	0xbd94e78d	-0.07270727
20	0x3db6b2c0	0.089208126
21	0x3d5e7398	0.054309458
22	0xbd8f6212	-0.07001127
23	0x3a678ff6	0.00088334025
24	0x3d4c922a	0.04994408
25	0xba5783ae	-0.0008221221
26	0xbd4dd66e	-0.050253324
27	0xbd4c026a	-0.04980699
28	0xbc2e3e94	-0.010635037
29	0xbd62d8b6	-0.055382453
30	0xbba53cd2	-0.0050426507
31	0x3d1962f6	0.037447892
32	0x3d15fa67	0.036615755
33	0xbc882dc4	-0.016623385
34	0x3ce7ea64	0.028310008
35	0xbd0304d6	-0.031987034
36	0xbd069352	-0.03285534
37	0xbd4f5516	-0.050618254
38	0xbd468145	-0.048463125
39	0x3c5f2627	0.013619936
40	0x3d4bdbae	0.04977005
41	0x3da8d1b9	0.082431264
42	0x3d649921	0.055810098
43	0x3d706a29	0.058694992
44	0x3cde673a	0.027148832
45	0xbcc237bc	-0.023708217
46	0x3d8b52e4	0.068029195
47	0xbd150edd	-0.036391128
48	0x3d36d261	0.044634227
49	0xbd057898	-0.03258571
50	0x3a2f5126	0.0006687812
51	0x3d163768	0.036673933
52	0x3d5b5992	0.053552218
53	0x3bf15b68	0.007365633
54	0x3d7fd8a5	0.062462468
55	0x3db999fd	0.09062574
56	0x3d3a6450	0.04550582
57	0x3d381722	0.044943936
58	0xbd31571f	-0.043295976
59	0x3d8d6eda	0.06905909
60	0xbd5d8333	-0.0540802
61	0x3b85c791	0.004082628
62	0x3cd4b390	0.025964528
63	0x3b0b2bc2	0.0021235798
64	0x3d99a126	0.0750144
65	0xba9bc3b1	-0.0011883882
66	0x3d21f206	0.039537452
67	0x3da9d84e	0.0829321
68	0x3c980b04	0.01855994
69	0xbd337dd5	-0.043821175
70	0x3c490d1e	0.012271194
71	0xbda9ebe7	-0.08296948
72	0x3cb5b516	0.022181075
73	0x3ccbe20d	0.024888063
74	0xbb858ec3	-0.0040758564
75	0x3cb639b2	0.022244308
76	0xbd85e1b3	-0.06537189
77	0x3d829769	0.063765354
78	0x3cbc5f6b	0.022994718
79	0x3cf9d9f8	0.030499443
80	0xbc9b4259	-0.018952535
81	0x3ce386a4	0.027774163
82	0xbc9be695	-0.019030849
83	0x3cca3e2a	0.024687845
84	0xbc7f6b88	-0.015589602
85	0x3d900bbc	0.07033488
86	0x3d8ba5f9	0.06818766
87	0xbc9062bf	-0.01762521
88	0xbbb1dabe	-0.0054276874
89	0x3da4ab2a	0.080404595
90	0x3ccd9bfa	0.02509879
91	0x3ce3ec3c	0.027822606
92	0x3daf4446	0.08557944
93	0xbc920bdb	-0.017827919
94	0xbcb21cf5	-0.021742323
95	0xbcea3728	-0.028590754
96	0x3da801e1	0.082034834
97	0x3c3fc773	0.011705267
98	0x3d7c162c	0.061544582
99	0xbca8e23c	-0.02061569
100	0xbd848d28	-0.06472236
101	0x3cc575c0	0.024104
102	0xbd35ce0e	-0.044385962
103	0x3d24fb66	0.040278815
104	0xbd097981	-0.03356314
105	0x3d8739dc	0.06602833
106	0x3d303b81	0.043025497
107	0xbd26b15d	-0.04069649
108	0xbda91ae3	-0.08257081
109	0xbdafe609	-0.085887976
110	0xbd69eea5	-0.057112355
111	0xbd069018	-0.032852262
112	0xbd4db389	-0.050220046
113	0x3d10cc34	0.035350993
114	0x3d1b499c	0.037911996
115	0x3c967264	0.018365093
116	0x3cbb1625	0.022837708
117	0xbd1a56a4	-0.037680283
118	0xbd535bca	-0.05160121
119	0x3d21c054	0.03949006
120	0xbd44904f	-0.047989186
121	0xbd1287f3	-0.035774183
122	0x3c087308	0.008328207
123	0x3c8bad5d	0.01705044
124	0xbd9f9eca	-0.077939585
125	0xbc14e6d0	-0.009088233
126	0x3c93bade	0.018033441
127	0xba602d94	-0.00085517135
128	0xbc5cec3a	-0.013484055
129	0xbd4ec5ec	-0.05048172
130	0x3d649067	0.055801775
131	0xbd694f66	-0.056960486
132	0xbd313ec0	-0.043272734
133	0xbd792de1	-0.06083477
134	0x3d531870	0.051536977
135	0xbb9daf25	-0.0048121386
136	0xbcefc8dd	-0.029270584
137	0x3d4e6f7a	0.05039928
138	0x3d596831	0.05307788
139	0x3d4601c7	0.04834154
140	0xbd900f94	-0.07034221
141	0x3c2b0d25	0.010440146
142	0xbd1830c4	-0.03715588
143	0xbda14255	-0.0787398
144	0x3da65928	0.08122474
145	0x3ceeb689	0.029139774
146	0x3cfd8ae4	0.030950017
147	0xbd9cd00d	-0.0765687
148	0xbc0bbb8a	-0.0085285995
149	0xbd490bc0	-0.04908347
150	0xbd807226	-0.06271772
151	0xbd9555b6	-0.07291739
152	0xbce30257	-0.027711077
153	0xbc8995d5	-0.016795078
154	0x3d496f32	0.04917831
155	0x3d176a95	0.03696688
156	0xbd014e21	-0.03156865
157	0x3d028fba	0.03187535
158	0x3ca272f2	0.0198302
159	0xbd88877d	-0.06666467
160	0x3d3d62ff	0.04623699
161	0x3d7b9da8	0.06142965
162	0xbd2a97d5	-0.041648705
163	0x3c6d5c0e	0.01448728
164	0x3d1f0650	0.03882438
165	0xbdb3ec89	-0.0878535
166	0xbdabc6f2	-0.08387555
167	0xbdbc5b13	-0.091970585
168	0x3ca7f5d5	0.020502964
169	0xbd0ad516	-0.03389462
170	0x3d258608	0.040411025
171	0x3cf37058	0.029716656
172	0xbd7ddd54	-0.061978653
173	0xbcebfc9a	-0.028806973
174	0x3c31beaa	0.0108486805
175	0x3b11cb18	0.0022246297
176	0xbc132258	-0.008980356
177	0x3cce8599	0.025210189
178	0x3c063009	0.008190163
179	0x3d27778d	0.040885497
180	0x3c420153	0.011841136
181	0x3d70fb05	0.05883314
182	0x3b894840	0.004189521
183	0x3d7f51ac	0.062333748
184	0x3cf8a42c	0.03035172
185	0xbd991433	-0.07474556
186	0x3d5a7784	0.053336635
187	0xbd2b0aef	-0.041758474
188	0x3d5e3123	0.05424608
189	0x3db373b3	0.08762302
190	0xbd9fcaa8	-0.078023255
191	0x3aa39600	0.0012480617
192	0xbca5c570	-0.020235747
193	0x3dbaf104	0.09128001
194	0x3c22692e	0.009912772
195	0x3c153590	0.009107009
196	0x3db88ef1	0.09011639
197	0x3c2acac2	0.010424318
198	0x3b3ff0ec	0.0029287888
199	0xbdb22772	-0.0869893
200	0x3d1386d1	0.036017243
201	0x3d877f10	0.06616032
202	0x3d99b602	0.07505418
203	0x3db771fc	0.08957288
204	0xbc8674d3	-0.016413128
205	0xbcb38138	-0.021912202
206	0x3d91d2b8	0.071202695
207	0x3db5eeae	0.08883415
208	0x3d545a1a	0.05184374
209	0xbd4055ee	-0.04695695
210	0x3dad0c28	0.08449584
211	0x3d32bb2b	0.04363553
212	0x3d189d24	0.037259236
213	0x3d9a5745	0.075361766
214	0xbba16c6b	-0.0049262545
215	0x3c8969ec	0.01677414
216	0xbce64aec	-0.028111897
217	0xbbdb87b4	-0.0066995267
218	0xbd911c02	-0.0708542
219	0xbd458a7c	-0.048227772
220	0xbd65316b	-0.05595533
221	0x3da81e96	0.08208959
222	0xbcb72080	-0.022354364
223	0xbad37e36	-0.0016135636
224	0x3d8394a6	0.06424837
225	0x3d507b35	0.05089875
226	0xbd7db62d	-0.061941314
227	0x3c1ce3ad	0.0095757665
228	0xbd4727c1	-0.048621897
229	0xbcf1a654	-0.029498257
230	0x3d1c6b0d	0.03818803
231	0x3c2b0ae7	0.010439611
232	0x3da4672a	0.080274895
233	0x3d63e539	0.055638526
234	0xbd7d9f1d	-0.06191932
235	0xbd73af0b	-0.059493106
236	0xbd793b88	-0.06084779
237	0xbc93eaf1	-0.018056365
238	0x3d3a0f5c	0.045424804
239	0x3d03b329	0.032153282
240	0x3dadb3c3	0.084815525
241	0x3db7c4a0	0.0897305
242	0x3d9d8baa	0.076926544
243	0x3d1f5a66	0.03890457
244	0xbd22495f	-0.039620753
245	0x3d944860	0.07240367
246	0x3da73eb8	0.081662595
247	0x3da20f80	0.07913113
248	0x3da3dfad	0.08001647
249	0x3dbcea99	0.092244335
250	0x3cf8a305	0.030351171
251	0xbca52aee	-0.020162072
252	0x3b779120	0.003777571
253	0xbdbda1dc	-0.09259388
254	0xbd2b2b50	-0.041789353
255	0xbd1977cc	-0.037467763

up2.bias f4 [32]
0	0xbd3eb4dc	-0.0465592
1	0xbd317e51	-0.043333355
2	0x3d730570	0.059331357
3	0xbd8c8d85	-0.0686293
4	0x3d83e706	0.064405486
5	0xba12ed4a	-0.0005604817
6	0xbd9ea901	-0.07747079
7	0x3d369c45	0.044582624
8	0x3d817fda	0.06323214
9	0x3d22e018	0.039764494
10	0xbc98a347	-0.018632544
11	0xbd05425a	-0.03253398
12	0x3c0efb01	0.008726836
13	0xbd5e9fbe	-0.05435156
14	0x3c62fb3a	0.013853842
15	0xbd5c9702	-0.05385495
16	0x3c5120f3	0.012764203
17	0xbca54928	-0.020176485
18	0x3d65ec7d	0.056133736
19	0xbd9400dc	-0.072267264
20	0xbd54818e	-0.051881365
21	0x3d5df677	0.054190125
22	0xbceb4b02	-0.02872229
23	0x3d8e884f	0.069595926
24	0xbd81ad71	-0.063319094
25	0x3ce77de6	0.028258275
26	0x3c897edd	0.016784126
27	0x3db38147	0.08764892
28	0x3d6571a8	0.056016594
29	0x3d0d8e03	0.03455926
30	0xbb458a6f	-0.0030142327
31	0x3c8d59e4	0.017254777
